…
    "One common exception to this are tabular modalities. Many tabular modalities do not contain inherent structure and are just an unordered bag of features. In this case, positional encodings add noise (as they don't mean anything. Therefore, we encode this as 2000 channels. \n"
   ]
  },
  {
   "cell_type": "code",
   "execution_count": 8,
   "id": "504d15c029cf68e0",
   "metadata": {
    "collapsed": false
   },
   "outputs": [
    {
     "name": "stdout",
     "output_type": "stream",
     "text": [
      "spatial_axes=[1, 2, 3], channels=[2000, 3, 3]\n",
      "HealNet(\n",
      "  (layers): ModuleList(\n",
      "    (0-2): 3 x ModuleList(\n",
      "      (0): PreNorm(\n",
      "        (fn): Attention(\n",
      "          (to_q): Linear(in_features=16, out_features=512, bias=False)\n",
      "          (to_kv): Linear(in_features=2005, out_features=1024, bias=False)\n",
      "          (dropout): Dropout(p=0.0, inplace=False)\n",
      "          (to_out): Sequential(\n",
      "            (0): Linear(in_features=512, out_features=16, bias=True)\n",
      "            (1): LeakyReLU(negative_slope=0.01)\n",
      "          )\n",
      "        )\n",
      "        (norm): LayerNorm((16,), eps=1e-05, elementwise_affine=True)\n",
      "        (norm_context): LayerNorm((2005,), eps=1e-05, elementwise_affine=True)\n",
      "      )\n",
      "      (1): PreNorm(\n",
      "        (fn): FeedForward(\n",
      "          (net): Sequential(\n",
      "            (0): Linear(in_features=16, out_features=128, bias=True)\n",
      "            (1): SELU()\n",
      "            (2): Linear(in_features=64, out_features=16, bias=True)\n",
      "            (3): Dropout(p=0.0, inplace=False)\n",
      "          )\n",
      "        )\n",
      "        (norm): LayerNorm((16,), eps=1e-05, elementwise_affine=True)\n",
      "      )\n",
      "      (2): PreNorm(\n",
      "        (fn): Attention(\n",
      "          (to_q): Linear(in_features=16, out_features=512, bias=False)\n",
      "          (to_kv): Linear(in_features=13, out_features=1024, bias=False)\n",
      "          (dropout): Dropout(p=0.0, inplace=False)\n",
      "          (to_out): Sequential(\n",
      "            (0): Linear(in_features=512, out_features=16, bias=True)\n",
      "            (1): LeakyReLU(negative_slope=0.01)\n",
      "          )\n",
      "        )\n",
      "        (norm): LayerNorm((16,), eps=1e-05, elementwise_affine=True)\n",
      "        (norm_context): LayerNorm((13,), eps=1e-05, elementwise_affine=True)\n",
      "      )\n",
      "      (3): PreNorm(\n",
      "        (fn): FeedForward(\n",
      "          (net): Sequential(\n",
      "            (0): Linear(in_features=16, out_features=128, bias=True)\n",
      "            (1): SELU()\n",
      "            (2): Linear(in_features=64, out_features=16, bias=True)\n",
      "            (3): Dropout(p=0.0, inplace=False)\n",
      "          )\n",
      "        )\n",
      "        (norm): LayerNorm((16,), eps=1e-05, elementwise_affine=True)\n",
      "      )\n",
      "      (4): PreNorm(\n",
      "        (fn): Attention(\n",
      "          (to_q): Linear(in_features=16, out_features=512, bias=False)\n",
      "          (to_kv): Linear(in_features=18, out_features=1024, bias=False)\n",
      "          (dropout): Dropout(p=0.0, inplace=False)\n",
      "          (to_out): Sequential(\n",
      "            (0): Linear(in_features=512, out_features=16, bias=True)\n",
      "            (1): LeakyReLU(negative_slope=0.01)\n",
      "          )\n",
      "        )\n",
      "        (norm): LayerNorm((16,), eps=1e-05, elementwise_affine=True)\n",
      "        (norm_context): LayerNorm((18,), eps=1e-05, elementwise_affine=True)\n",
      "      )\n",
      "      (5): PreNorm(\n",
      "        (fn): FeedForward(\n",
      "          (net): Sequential(\n",
      "            (0): Linear(in_features=16, out_features=128, bias=True)\n",
      "            (1): SELU()\n",
      "            (2): Linear(in_features=64, out_features=16, bias=True)\n",
      "            (3): Dropout(p=0.0, inplace=False)\n",
      "          )\n",
      "        )\n",
      "        (norm): LayerNorm((16,), eps=1e-05, elementwise_affine=True)\n",
      "      )\n",
      "      (6): ModuleList(\n",
      "        (0): PreNorm(\n",
      "          (fn): Attention(\n",
      "            (to_q): Linear(in_features=16, out_features=512, bias=False)\n",
      "            (to_kv): Linear(in_features=16, out_features=1024, bias=False)\n",
      "            (dropout): Dropout(p=0.0, inplace=False)\n",
      "            (to_out): Sequential(\n",
      "              (0): Linear(in_features=512, out_features=16, bias=True)\n",
      "              (1): LeakyReLU(negative_slope=0.01)\n",
      "            )\n",
      "          )\n",
      "          (norm): LayerNorm((16,), eps=1e-05, elementwise_affine=True)\n",
      "        )\n",
      "        (1): PreNorm(\n",
      "          (fn): FeedForward(\n",
      "            (net): Sequential(\n",
      "              (0): Linear(in_features=16, out_features=128, bias=True)\n",
      "              (1): SELU()\n",
      "              (2): Linear(in_features=64, out_features=16, bias=True)\n",
      "              (3): Dropout(p=0.0, inplace=False)\n",
      "            )\n",
      "          )\n",
      "          (norm): LayerNorm((16,), eps=1e-05, elementwise_affine=True)\n",
      "        )\n",
      "      )\n",
      "    )\n",
      "  )\n",
      "  (to_logits): Sequential(\n",
      "    (0): Reduce('b n d -> b d', 'mean')\n",
      "    (1): LayerNorm((16,), eps=1e-05, elementwise_affine=True)\n",
      "    (2): Linear(in_features=16, out_features=4, bias=True)\n",
      "  )\n",
      ")\n"
     ]
    }
   ],
   "source": [
    "spatial_axes = []\n",
    "channels = []\n",
    "for tensor in [tab_sample, img_sample_2d, img_sample_3d]:\n",
    "    b, *spatial_dims, c = tensor.shape\n",
    "    spatial_axes.append(len(spatial_dims))\n",
    "    channels.append(c)\n",
    "    \n",
    "print(f\"{spatial_axes=}, {channels=}\")\n",
…
